basic_rnn.pt (torch, 268463 bytes, 8 tensors)

rnn.rnn.0.W f4 [66, 128]
00000000: d0af 103e 90c8 5fbc 84b9 2f3d 93b1 c0be
00000010: 38bc bc3e f099 6e3d 9966 99be a752 8cbc
00000020: 3302 e7bd cffd 30bd 503a 3cbe 0456 db3d
00000030: 3314 82bd 1a11 933d 85ab 573e dae5 87be
00000040: 6d12 b1be 94a0 83be c4e2 083e d7cb 70bd
00000050: 5572 bebe e917 0fbe 98d6 07be 74e9 a13e
00000060: 7067 053f b314 fb3d 43a3 a4be 1ce8 c8bd
00000070: 80db bfbe f310 95bd a305 83be bdd6 a4be
00000080: d909 60bd b9c2 cc3c e948 5bbe 6dfe babe
00000090: 100c 9ebd dab6 a13e 3eb7 81bd da6f 54be
000000a0: 4615 773e 0fd8 95be ca5d d2be d971 d53d
000000b0: 62ec babe cc30 79be cc70 dcbd 1c39 86be
000000c0: 86c7 f6bd 68f6 143e 27bc d73d 9c4a 153d
000000d0: 3820 6abe 3e9b 9d3e 8a14 5c3e f7f3 193e
000000e0: d8a2 5e3e 010f 643d 4c6d 15bd 5a07 c4be
000000f0: f13a c6be 27d2 863e 2542 e93d 6c13 533d
00000100: 710d 403e 6782 5f3e f416 7bbe 7636 e4bd
00000110: 0053 03bd b802 ee3e 0d9d 963d 4749 aa3b
00000120: 64e7 ffbd f619 0fbe 89c5 1f3e b620 c43d
00000130: 2f02 c53e e02d 24be ba14 fc3d bac6 543e
00000140: 65dd 92bd d027 5e3d 19e5 a03c adc8 483d
00000150: bdb8 e13c a556 06bf 7ae5 7bbc 18c7 85be
00000160: a247 cc3c 912f 23be bd96 4dbd 4a54 953d
00000170: ce77 a4bd 42d8 793e 4e22 12be ed9f bc3d
00000180: 45ae 1fbd 8da8 fd3d 8944 41bd 5d86 c63d
00000190: 3c51 783e f434 663e a7a2 acbc 725d e1be
000001a0: f8ee 213d fe38 d6bb 17b5 6cbe ce0a 63be
000001b0: a381 5cbd 3152 80be fcc0 a3be d2fb 9fbe
000001c0: 8d22 d23e b3c6 ef3d df98 1dbe 1ca3 b5b9
000001d0: 1061 87bd a657 c63e 0bda 09bf 01ca 01be
000001e0: bc79 c73e 3150 13be b43d b13e 9abe 18b9
000001f0: e84c d9be 6083 053e 7463 c33c 8615 b1be
00000200: 6a0b fe3c 8e53 333a f989 623d 1615 b33d
00000210: d53e 01bd cec5 203d 14d7 513d 945d dbbd
00000220: ee13 c93d ccfb 773d 4061 813b 141e 1abc
00000230: 083d 83bd f3dd 9d3b 2248 7d3d 61a3 75bd
00000240: 0bd1 1a3c 1c0a bd3b 3894 9abb afe0 e23c
00000250: c119 683c 7d11 a5bd 2761 f93c 9464 103d
00000260: 7b73 22bb 721c babc 477b 473d e60a 83bd
00000270: ddc6 d0bb c7c5 04bd 6491 3ebd 5681 1fbd
00000280: b489 3fbc 6c16 6cbb c977 dbbc 4250 8d3b
00000290: d064 d13b d838 413d 6c49 b2bb d2b4 183d
000002a0: 63f8 cbbc fcdd 2cbd 80cb 583d 1ce6 0dbd
000002b0: 6999 c73b 37ba e2bc f29d 6abd d275 ffbb
000002c0: b502 c13c cd82 83bd e6bb f0bc 56ba 833d
000002d0: 0463 b9bd 7c32 ab3b 01a3 0b3d 146c b8bb
000002e0: 00f0 ab3d 9c9e e13b 5135 233d ca4a ec3c
000002f0: a9fa d1bc 91fa b03c dd2c bebc f534 b43d
00000300: 075b fe3c 00f2 cd3b cfb0 803c dd60 4b3d
00000310: 69c6 5dbc 2144 dfbd 9097 a9bc 6858 a0bc
00000320: 382c 13bc 0ce3 c3bc e7f8 1d3b e14d a03c
00000330: ad4e 653d ddd9 49bd 650c 803d da67 5ebd
00000340: 03e4 88bc c7ce 943d cebf fc3c bc47 fe3c
00000350: dbe8 09bc 8eb1 2a3e d4b9 97bc ee05 aa3c
00000360: 941b 02bd bdb7 b0bc 32dc 25bc 7206 b73d
00000370: 7c6d 35bd ebf6 ccbb b119 fdbb 4d25 22bd
00000380: 165b 08be a73f 86bd deae 2f3d 90c0 3bbc
00000390: ed9b 213d d90d 383d e83c c03c 6757 193d
000003a0: 13f2 8fbd 5b48 aabb 1e1a 8a3d 708f 2f3d
000003b0: eeae 6dbd 4058 df3b 3f24 c4bb ffb3 47bd
000003c0: 19ed 40bd 5ad3 e8bd 9a44 863d ed1a 38bd
000003d0: e24a 01be bdb5 2f3c e487 eb3d b7f6 1d3c
000003e0: f778 d9bc de9a dfbb f53c ea3c 9a0a 87bd
000003f0: 709e 9d3d 3db1 8bbc 0a94 d6bd 3d89 bfbc
0.14129567 -0.013658658 0.04290153 -0.37635478 0.3686235 0.058252275 -0.29961088 -0.017129255
-0.11279716 -0.0432108 -0.1838162 0.107097656 -0.06351509 0.07180996 0.21061523 -0.2654255
-0.3458437 -0.2570845 0.13367754 -0.058788147 -0.37196603 -0.13973965 -0.13265455 0.31623423
0.5211096 0.122598074 -0.3215581 -0.09809896 -0.37472153 -0.072786234 -0.25590238 -0.32195082
-0.05469689 0.024995195 -0.21414532 -0.36522236 -0.077171445 0.31584817 -0.06333779 -0.20745793
0.24129209 -0.29266402 -0.4108718 0.10422105 -0.3650847 -0.24335021 -0.10763702 -0.26215446
-0.12049775 0.14547122 0.10533934 0.036448106 -0.22863853 0.30782503 0.2149221 0.15034471
0.21741807 0.05567837 -0.036481187 -0.3828686 -0.38716844 0.2633221 0.11389569 0.051532194
0.18755127 0.21827088 -0.24520475 -0.111432 -0.032061577 0.4648645 0.07354174 0.0051967236
-0.12495306 -0.13974747 0.15602697 0.095765516 0.38478228 -0.16033125 0.12308641 0.20778933
-0.07171134 0.054237187 0.019640492 0.049019504 0.02755391 -0.5247596 -0.015374536 -0.2612846
0.024936501 -0.15936114 -0.050192583 0.072914675 -0.080306634 0.24398902 -0.14270899 0.09210191
-0.038984556 0.12385664 -0.0471845 0.096935965 0.24249738 0.22481138 -0.021073652 -0.44016606
0.03953454 -0.0065375557 -0.23115955 -0.2217209 -0.05383457 -0.25062707 -0.31983173 -0.3124681
0.41041985 0.11707821 -0.15390347 -0.00034644536 -0.0661031 0.38738745 -0.5384833 -0.12674715
0.38960063 -0.1438606 0.34617388 -0.00014566854 -0.42441487 0.13038397 0.023851134 -0.34586734
0.031011302 0.0006840759 0.055307362 0.08744256 -0.031554062 0.03925114 0.051230505 -0.10711208
0.098182544 0.060542867 0.0039483607 -0.009406585 -0.06408125 0.004817718 0.06183637 -0.059970263
0.009449254 0.0057690274 -0.004717376 0.027695028 0.014166296 -0.08059976 0.030441834 0.03525217
-0.002478807 -0.022718642 0.04870155 -0.06398563 -0.0063713626 -0.032415178 -0.046525374 -0.038941704
-0.011690546 -0.0036024107 -0.026790516 0.004312546 0.0063901916 0.04717335 -0.0054408815 0.03728182
-0.024898713 -0.04220389 0.052928448 -0.034643278 0.006091286 -0.027676685 -0.057279535 -0.0077960277
0.023560861 -0.06421433 -0.029386472 0.06432025 -0.09052089 0.005224524 0.034091 -0.0056281183
0.08395386 0.006885363 0.03984577 0.028844256 -0.02563222 0.021603854 -0.023214752 0.08799163
0.031049265 0.006284952 0.015709309 0.049652923 -0.013536074 -0.109016664 -0.020702153 -0.019573405
-0.008982711 -0.023911975 0.0024104656 0.019568386 0.055983234 -0.049280036 0.06252364 -0.05429826
-0.016710287 0.07266002 0.030853178 0.031040065 -0.0084173335 0.16669294 -0.018521227 0.02075478
-0.03176458 -0.021571988 -0.010123299 0.08936776 -0.044293866 -0.006255021 -0.00772401 -0.039586354
-0.13315997 -0.065551095 0.042891376 -0.011459485 0.039455343 0.04493508 0.023466542 0.03743687
-0.07028594 -0.0051966137 0.06743263 0.042861402 -0.058028154 0.00681594 -0.005985766 -0.048755642
-0.047101114 -0.11368437 0.065560535 -0.044947553 -0.12626222 0.010724482 0.115005285 0.009641341
-0.026546938 -0.0068238815 0.02859352 -0.06593819 0.07696235 -0.017052287 -0.10477455 -0.02338087

rnn.rnn.0.V f4 [128, 128]
00000000: fd6a fb3d 35ad bc3d 4478 1fbd 0ac1 193e
00000010: ba38 65bd a93b e5bd 573a dbbd 2df4 0bbd
00000020: 7519 24bc 5c5b a03d 7475 c7bd cd83 e5bc
00000030: 7672 8f3d 0e66 4abe 37de ab3d 9fd1 78bd
00000040: ec8e a6bc 05bd e1bc eabb 2a3e 28ad 32bc
00000050: 0c5b afbb 0f88 b03c 04a9 91ba ef96 623d
00000060: 7d27 4bbd c7f1 efbc 3f5d dfbb 7344 3bbd
00000070: a818 c03c 77b7 dd3d 0721 853a a121 26be
00000080: 740e e7bd aaa1 0d3d a5bf ab3c c3b2 623d
00000090: 7b59 cb3d ba4d 8f3d e2e1 b2bd 7af1 563e
000000a0: 6cf6 a8bd fb88 0fbd 3446 533d 2454 54be
000000b0: 9a56 3dbd c887 84bd 678e bc3d 681c ebbc
000000c0: c245 493d 7120 323d 9220 d4bd f316 813c
000000d0: ba28 19be cbc2 d93c ff0a 08be 0622 c43d
000000e0: 0a3a aebc 34de e53c 7c13 673b 0703 bb3b
000000f0: 2aea 89bd fdd7 b93d b3d2 7fbd 4eae b8bd
00000100: 9061 febd 01ae a5bd 9948 fe3d 1682 573d
00000110: 862b 363d d363 e23c 4398 2b3e 0682 133d
00000120: 8a21 9bbd 44dc bcbd c1c8 133d 2705 003e
00000130: 935d aa3d 76cb fcbc 2747 a83d dd67 88ba
00000140: caa6 7d3b d1bd 683e 7297 cabd 63d5 da3d
00000150: 7412 e03d ff90 2bbd 9722 953d 06c0 a239
00000160: 3de2 843d d752 9f3d 804e c83c 8f86 013e
00000170: ccb5 63bc 5a3a 5e3b f47b 0cbe d73b 553d
00000180: f192 093e 3835 50bb 0a6a c93d 4bd1 a1bd
00000190: 995d 9e3d 107c 793c 9899 0838 72ad d7bc
000001a0: b8fb adbc b610 483d 47c7 26bc 3629 fd3d
000001b0: 97ed 45bd 405c b43c ebaf 503d 1fec 953d
000001c0: 349e 76bd e5b8 bf3d 8a7b c5bc 5174 99bc
000001d0: 97e4 85bd 9fc3 86bd 27fa f7bc 9e1c 9cbd
000001e0: d213 053e ead3 0b3d 864e 113e fc16 cb3c
000001f0: 3f60 20bc b76b 8f3d bb3b 4f3d 122b 393d
00000200: 5859 8dbd ceef cc3d 0223 1abd 6354 c8bd
00000210: 5923 de3d 00e8 47bc 0be5 6ebd 260d 07bd
00000220: 2792 89bd 1b30 083e d1f3 17bd d6fe f23c
00000230: 2a95 2b3c d0a1 87bd 7570 08be 7c92 a63c
00000240: 8445 cf3c 648d 13bd 7bfb 243d 348e 8c3d
00000250: b10a a33d 2ffd 083e 2e20 1a3d 4d77 69bd
00000260: 1e4b ecbc de72 4c3d f46d 5ebd 8770 4a3d
00000270: 413c a63d a22e 953c 6818 61bd 1a82 f3bd
00000280: 5116 513d af4d d7bd 3e24 e9bc 6d92 97bd
00000290: 0abb f2bb b15d 673d ff57 523d 93d3 a2bd
000002a0: 139c dd3c 810b 173e 286c f0bc 0f16 0c3e
000002b0: 9c54 d43d ab38 943e b49e 993d 236b 1c3b
000002c0: 7e75 333d 06d5 a4bd 3eb0 073e ad46 e23c
000002d0: eaf1 443a 64c8 213e 9f02 0ebe 1700 f2bd
000002e0: 2c09 58bc b6c1 a3bb 111f aabc c7bd 3dbd
000002f0: b8e3 2b3d f9bd 983d b8c7 b1bc 365d 6a3d
00000300: e7a5 8fbc 58f6 c93d 5c09 8c3d 3bd6 f83c
00000310: 6ce6 d23c 91fc f1bc aef1 f6bd 3595 d33c
00000320: fc95 793d 26de 343d ead4 03bd a6d5 3ebb
00000330: 095b c4ba 314c 0d3e 0f20 83bb b4d6 9abc
00000340: 6e41 a1bd 1803 893c 85f1 013e e8c8 d33c
00000350: e888 313e c2a9 97bb 30bf 4dbc 7f49 013d
00000360: 6027 2cbc fd89 1d3d 6238 f33d e5df a73d
00000370: fb1d 25bd 9e80 b5bd 7b8d a4bd f6c1 45be
00000380: 1172 a53d 9801 88bd dba7 debd e975 46bc
00000390: ed2b 9d3d 0594 3dbd c7f3 50be 17a9 503e
000003a0: 5be5 30be 4d0e e9bd a9c8 c43c 361b a13c
000003b0: dcca 8c3d e0f9 293e 0890 fe3d 88a6 163e
000003c0: bf64 9ebc 3038 eebd 444a 633d 73de 42bc
000003d0: e7b7 e33d 8f66 473d 073d cf3c 00ee e73d
000003e0: bab6 bcbb d83b 9a3c 630a d33d 390d aabc
000003f0: d8e4 9e3c 2b6e 293e 4be4 c43c cf3c 783e
0.12276266 0.09212724 -0.038933054 0.15015045 -0.0559623 -0.1119302 -0.10704487 -0.03416841
-0.010015835 0.078299254 -0.09739199 -0.02801695 0.070042536 -0.19765493 0.083919935 -0.060746785
-0.020331822 -0.027555952 0.16673246 -0.0109055415 -0.00535143 0.021549253 -0.0011112993 0.055319723
-0.049598206 -0.029290093 -0.0068165357 -0.045719575 0.023449257 0.10826009 0.0010156938 -0.16223766
-0.112820536 0.034578003 0.020965407 0.05534626 0.099291764 0.06997247 -0.0873449 0.20990553
-0.08250126 -0.035042744 0.051580623 -0.20735222 -0.046225168 -0.06471211 0.092068486 -0.028700069
0.04913879 0.04348797 -0.10357775 0.015758013 -0.14956942 0.026582142 -0.13285445 0.09576802
-0.02126791 0.028060056 0.0035259416 0.005707148 -0.067341164 0.090743996 -0.062456798 -0.09017621
-0.12420952 -0.08089829 0.12416191 0.052614294 0.0444751 0.02763549 0.16757302 0.036012672
-0.075747564 -0.092217 0.036080126 0.12501965 0.08318629 -0.030858736 0.08216696 -0.001040693
0.003870415 0.22728659 -0.09892167 0.106852315 0.1094102 -0.041886326 0.07281988 0.00031042116
0.06488464 0.07779472 0.024451494 0.12648986 -0.013898324 0.0033909292 -0.1371916 0.05205902
0.1343496 -0.0031770002 0.098346785 -0.079012476 0.07732696 0.015227333 3.2567972e-05 -0.026327822
-0.021238193 0.04884406 -0.010179347 0.12361376 -0.048322286 0.022016644 0.05094902 0.07320427
-0.060209468 0.09361438 -0.02410676 -0.018732222 -0.06537741 -0.065802805 -0.03027065 -0.07622646
0.12995842 0.034137644 0.1419011 0.024791233 -0.009788572 0.07002967 0.050594073 0.04520709
-0.069018066 0.100066766 -0.037631042 -0.097817205 0.10846586 -0.012201309 -0.0583239 -0.032971524
-0.067173295 0.13299601 -0.037097756 0.02966253 0.010472575 -0.0662266 -0.13324149 0.020333521
0.025301702 -0.036023512 0.040278893 0.068630606 0.079610236 0.13377832 0.037628345 -0.05699854
-0.028844412 0.049914233 -0.05430408 0.04942372 0.08116961 0.018210713 -0.054954916 -0.11890049
0.051046673 -0.10512864 -0.028459664 -0.074009754 -0.0074075507 0.056485835 0.05135345 -0.07950511
0.027051961 0.14750482 -0.029348448 0.1368029 0.103677005 0.28949484 0.07500973 0.002386757
0.04381322 -0.080484435 0.13250825 0.027621591 0.00075128546 0.15799099 -0.13868187 -0.118164234
-0.0131857805 -0.0049974574 -0.020766767 -0.046323564 0.041965216 0.074581094 -0.021701679 0.0572178
-0.017535163 0.098614395 0.06837723 0.03037559 0.02574464 -0.029539378 -0.120578155 0.025827983
0.060934052 0.04415717 -0.032185473 -0.0029119044 -0.0014980744 0.13798596 -0.0040016244 -0.018901207
-0.07873808 0.016725108 0.12689789 0.025852636 0.17337382 -0.004628391 -0.01255779 0.031564232
-0.010507435 0.038461674 0.118759885 0.08197001 -0.040311795 -0.088624224 -0.08034798 -0.19312271
0.08078397 -0.06640929 -0.1087186 -0.012113073 0.07674394 -0.04628374 -0.20405494 0.20377003
-0.17274992 -0.11379681 0.024021463 0.019666295 0.0687463 0.16599226 0.124298155 0.14711964
-0.019335149 -0.11631811 0.055490747 -0.011893856 0.11119061 0.048681792 0.025297655 0.11324692
-0.0057590874 0.018827364 0.103047155 -0.020758258 0.01939623 0.16545932 0.02403464 0.24241947

rnn.rnn.0.b f4 [128]
00000000: 8751 023d 118d 583d 3f72 0abe 89cb 1abe
00000010: 6ad2 84bd 3f9b 063e 773e 173d c9df b23d
00000020: 8fc4 b2bc 0fd9 bb3c 0e85 3abd 95f4 f23d
00000030: 1aef c5bd 6da0 28bd 3c4a db3d 7e69 06bc
00000040: 29e0 fb3c ee45 b7bd cdb1 1f3d ead9 a0bd
00000050: 79f5 213d 13ea b43d e76f 4fbd 56bb c7bc
00000060: 688e 14bc f60c 2fbd 3a1e 083e c382 993d
00000070: 7a48 24bd 19c0 f33d e022 68bd 110e c63c
00000080: aac5 3cbc 43af 32bd a796 4b3d e05b 11bd
00000090: de1b c13b 920c be3d 4a8b f23d ae61 283c
000000a0: 7506 82b9 7021 82bd c061 8c3d 579c 42bd
000000b0: 5d54 ce3d a503 2b3b 3b04 59bb 756b 083d
000000c0: f4a7 a03d 611a 8a3d e18b c63d 91a4 cabd
000000d0: de71 f53d 4475 933d 8f80 aebd 25a8 27bd
000000e0: f7ff 933d 85a8 0f3c aa62 903c fb59 8b3c
000000f0: 70df 753d 8593 d93d a110 72bc 86be 543d
00000100: 3264 f43c ee35 afb9 921d 9b3d 0fb9 c43c
00000110: 94b0 253d d216 db3c e73c f03c 51be 3d3c
00000120: c0eb de3d 7a4b 2c3d 00f0 6c3d b10b e53d
00000130: 73db e2bd 439b 093d 0d88 d53d 9c79 97bd
00000140: 9b26 013d 2d8f 9fbd afda 15be c69e 45b9
00000150: 5ad8 11bc 5475 b4bd 0d43 823d 5b8d 4b3d
00000160: 9c49 c83d 9e2d a0bd 7046 353c 1d62 00be
00000170: d91e 703d 47c6 10bd ff02 523d 1fd0 e4bd
00000180: 00e7 d63d eda3 99bd 2516 8ebd 09c0 513d
00000190: 5ea2 f2bd 09ee 06bd 7370 6fbd 29b9 c83d
000001a0: 7a84 8abd 3601 61bd 27c0 843d b932 4e3d
000001b0: b6c0 56bd 5160 8fbc a5e7 a2bd 77da 553d
000001c0: 6035 a5bd 59f2 f0bc f951 c83d 204c 6a3c
000001d0: 0875 143d c0a9 7bbd 98f1 2dbc aafd a1bd
000001e0: 00ad 3abb 4179 9e3d 6c47 6dbd 2bf9 073e
000001f0: bcbc 09be 0f28 4c3d 2fbe dd3d 2e49 993d
0.03181603 0.052868906 -0.13520144 -0.15116705 -0.06485446 0.13145159 0.036924805 0.0873409
-0.021822242 0.02293065 -0.045537047 0.118630566 -0.09664746 -0.04116862 0.107075185 -0.008203862
0.030746536 -0.08948885 0.038987923 -0.07854064 0.03954074 0.088337086 -0.050643828 -0.02438132
-0.009067155 -0.04273697 0.1329278 0.07495644 -0.04010818 0.11901874 -0.056673884 0.02417663
-0.011521736 -0.043624174 0.04970422 -0.03548801 0.0058932146 0.09279741 0.118429735 0.010277195
-0.00024800343 -0.06354034 0.06854582 -0.04751238 0.10074685 0.0026094702 -0.0033114094 0.033305604
0.078445345 0.067433126 0.096946485 -0.0989467 0.11984609 0.07200101 -0.08520614 -0.04093184
0.07226556 0.0087682055 0.017625172 0.01701068 0.06002754 0.1062384 -0.014774472 0.05193951
0.029832933 -0.00033418782 0.075739995 0.024014024 0.0404516 0.02674428 0.029325916 0.0115810195
0.108848095 0.042064168 0.05784607 0.111838706 -0.11077013 0.033595335 0.1042634 -0.07396242
0.031530958 -0.077909805 -0.14634202 -0.00018846532 -0.00890168 -0.08811441 0.06360445 0.049695354
0.09779665 -0.07821201 0.011064157 -0.12537427 0.05862317 -0.035345342 0.05127239 -0.111725084
0.104932785 -0.075019695 -0.069378175 0.05120853 -0.11847375 -0.03294185 -0.05845685 0.098009415
-0.06763549 -0.054932795 0.06481963 0.05034134 -0.052429877 -0.017501982 -0.07954339 0.052210297
-0.08066821 -0.029412435 0.0978126 0.014300376 0.036244422 -0.061441183 -0.0106166825 -0.07909711
-0.0028484464 0.07737971 -0.05792944 0.13278644 -0.13450903 0.04984289 0.1082729 0.07484661

rnn.rnn.1.W f4 [128, 128]
00000000: 6f85 4bbd 84cc 893c ac43 503e fbf3 92be
00000010: 6291 ea3c 3ea0 203e cf86 4a3d ef94 1b3c
00000020: 0a57 e0be 4a62 6fbd b011 663d e0ac e53c
00000030: 955d 703e 7f3e 7dbd 3997 f03c c4f4 203d
00000040: 3338 0f3e 7a86 093e b1d7 12be 39f3 913d
00000050: f84e 0fbe 3a2d 353e 5db3 6e3c 0f3b 30bd
00000060: eee5 b5bd 25e9 63bd ac65 e23d 6b3b 1a3e
00000070: ed85 513b 15dd 2abd 19b9 de3c 5a29 71bd
00000080: 0e91 1d3e 5722 f03d 8a22 8a3e 7f12 eb3d
00000090: 39a3 e13d 6bbe a03d 43a2 d33b cff9 0f3e
000000a0: 2185 82bd b518 85be 63d6 4e3d 9b16 1a3c
000000b0: 4fe9 583e e084 b3bd 403c 8a3e d2d6 2dbe
000000c0: 2f6f 383e d3f1 8cbd f2d0 583d 5d0c 963e
000000d0: ae30 77be c510 4ebe 0336 9c3e 1a22 673e
000000e0: 4c49 bf3d adba 1dbd 6a7b 8fbd d2b7 853a
000000f0: 3d89 073d 0edc 5ebe 6317 41be 08a7 49be
00000100: 3d10 833d 1a16 7cbc 1067 7b3d f111 9cbc
00000110: 406a ef3d e102 a6bd 1d95 b33c ff4f 833d
00000120: 11a0 37bd 42b7 87bd e727 bebd 4652 033e
00000130: 99f6 f73d 9e46 833b c015 803d 4d98 303d
00000140: 2159 2bbc 545f 343e f192 823d a9bc 133d
00000150: 37eb 97bd ed3a 563d c7ac 553e 48f6 343d
00000160: b5fc b4bd 62f2 acbc 06e9 593d 6ae6 8fbc
00000170: df85 173d 5c3c 8fbd 1924 223e 9ff8 323e
00000180: 3994 dbbb 00d9 193d 2807 05be fffa 93bd
00000190: 5773 d2bd 61d3 91be f944 07bd 5f73 5ebe
000001a0: 1312 10be 33bb 58be 4fa4 0ebe 4353 93bd
000001b0: d05b 05be aac1 02bd a012 a7be b5fb 423d
000001c0: 20fd 473e 1fcb 6b3d 96fc 043d d41f e1bd
000001d0: 963d 26be b1f8 8dbd 1b57 98be 7ba3 3ebe
000001e0: 5669 20be 08d9 60be b571 d33d d424 debb
000001f0: c17e 213e 8802 133e 70cd 90bd eb47 863e
00000200: 9dfb 2b3e 8d28 59bd c8f8 c8bd ab0f 4dbe
00000210: 9dcc 70be 247f d9bd c85b 85ba 9f0b 0dbb
00000220: 13f5 5bbe cf56 0cbe 965d 8dbc 66d8 753d
00000230: cef5 3c3e 8054 35be 2c92 233e 2cc0 39be
00000240: 61d5 543e e756 043d 868b 2abe a4f6 b3bd
00000250: 6047 b63d c269 363d 6015 333e 1816 4dbe
00000260: b794 eebd de34 be3e 6256 ebbd 5049 fd3d
00000270: 4320 623e 12e8 6d3e 91b7 93bd bc5c f83d
00000280: 3ee2 5cbc 001e 7abe db44 993e 34ac d1bd
00000290: 1e99 c13d d70e 18be 41cf fabd 649f 463e
000002a0: a1c3 41be fbdc 123e 12b7 c4bc 5f77 66bb
000002b0: 374a e4bd 9596 21bd a780 f13c c85e 25be
000002c0: eec7 b1bb 7bc0 80bd 9681 93be c53c b73a
000002d0: ecac 363e 293b f5bd 944b 53bd 7a3d a73e
000002e0: 1523 b93d cf09 73be 2421 65bd 5baf 30be
000002f0: ea67 b63d f291 19bd a72d bcbd b7b5 13be
00000300: c81b bfbd fecf ae3d 1ecd a7bd 6a6e efbb
00000310: d60f 66bd e200 163e f7c6 913e 96b8 fe3c
00000320: a667 f4bc 986a 083e 1edb 93bd 92bc 3abc
00000330: a1d4 46be fd8d 72be 3019 9a3e 2963 19bd
00000340: dbf8 373e 7d82 2d3e b757 393e 1607 3f3e
00000350: 611b 88bd 5ede 2bbe 3ec3 02be 8175 c5bd
00000360: 8aa4 4c3d ea84 5a3d 3cdf 1ebe 00d4 38bd
00000370: a8e5 11be fb1c 57be 3a1a 28be 80e0 cb3b
00000380: 26b9 143e 8809 87be bd57 bebc 8c63 3f3e
00000390: aea0 b43d cb46 2cbe 07af 14be c7ab 9dbd
000003a0: e748 08be f07d b6bd 85b5 17be 0b00 d5be
000003b0: 4d21 a8be 4ebd 913e f72c 70be 7473 ad3d
000003c0: 58c1 3ebd 4fe8 163c 1047 9a3d ade8 68bc
000003d0: 7a8a a5bd 40f8 a53b 80b4 34be 404e ffbd
000003e0: 576d b1be 12c1 ccbe 520e 303e 6f94 ddbc
000003f0: f252 323e f99c 16bd 7289 b9bd ef84 8c3e
-0.0496878 0.016821153 0.20338315 -0.28701767 0.028633777 0.15686128 0.04944497 0.009495958
-0.43816406 -0.058443345 0.056169212 0.028036535 0.23473199 -0.06182718 0.029368984 0.039295927
0.13986282 0.13430205 -0.14340092 0.07126469 -0.13994968 0.17693034 0.014569131 -0.043025073
-0.08881746 -0.055642266 0.110545486 0.15061729 0.0031970695 -0.041714747 0.02718787 -0.058877327
0.15387365 0.117253 0.26979476 0.11478137 0.110174604 0.07848819 0.006458552 0.14060138
-0.063730486 -0.25995412 0.050497424 0.009404804 0.2118275 -0.08765578 0.26999092 -0.16976479
0.18011163 -0.06882062 0.05293364 0.29306307 -0.24139664 -0.20123585 0.30509958 0.22571602
0.09340152 -0.038508106 -0.07005961 0.0010201877 0.033089865 -0.21763632 -0.18856578 -0.19692624
0.063995816 -0.015386129 0.061377585 -0.019051524 0.116901875 -0.08106018 0.021921689 0.064117424
-0.044830386 -0.066267505 -0.092849545 0.12824354 0.12107582 0.004006221 0.062541485 0.043113995
-0.010458262 0.1761449 0.06375683 0.036068592 -0.074179105 0.05230229 0.2086669 0.044180185
-0.088372625 -0.02111167 0.053200744 -0.017565925 0.036992904 -0.069939345 0.15834083 0.17477654
-0.006701019 0.037560463 -0.12991011 -0.07225608 -0.102759056 -0.28481582 -0.03302476 -0.21723698
-0.14069395 -0.21165161 -0.13929866 -0.07193615 -0.13023305 -0.031922974 -0.32631397 0.047603328
0.19530153 0.05756676 0.032467447 -0.10992399 -0.1623443 -0.069322 -0.29753956 -0.1861705
-0.15665182 -0.21957791 0.10324422 -0.0067792926 0.15771009 0.14356434 -0.07070434 0.26226744
0.16795202 -0.053017188 -0.09813076 -0.20025508 -0.23515554 -0.10619953 -0.0010174448 -0.002152182
-0.21480207 -0.1370499 -0.01725654 0.060020827 0.18453142 -0.17708015 0.15973729 -0.18139714
0.20784523 0.03230944 -0.16654786 -0.08787277 0.089003325 0.044534452 0.17488623 -0.2002796
-0.11649459 0.3714971 -0.114910856 0.12367499 0.2208262 0.23233059 -0.07212747 0.12127063
-0.013481675 -0.24425507 0.29935345 -0.10237923 0.09453033 -0.14849411 -0.12246562 0.1939674
-0.18922283 0.1434211 -0.024013076 -0.0035166366 -0.11146968 -0.039450247 0.029480292 -0.16149437
-0.005425445 -0.06286713 -0.28809804 0.0013979903 0.17839402 -0.119741745 -0.05158575 0.3266409
0.090398945 -0.2373421 -0.05593981 -0.17254393 0.08906539 -0.0374927 -0.09188395 -0.14424787
-0.09331471 0.08535765 -0.0819342 -0.0073068636 -0.056167446 0.14648774 0.2847211 0.031093877
-0.02983458 0.13321912 -0.07219528 -0.011397498 -0.19417049 -0.23686977 0.30097342 -0.037448082
0.17966025 0.16944309 0.18099867 0.18655047 -0.06645847 -0.16784045 -0.12769791 -0.09641553
0.049961604 0.053349413 -0.15514845 -0.045124054 -0.14247763 -0.21007149 -0.16416255 0.006221831
0.14523754 -0.2637446 -0.023235196 0.18690318 0.0881971 -0.1682388 -0.14519893 -0.076987796
-0.1330906 -0.089107394 -0.14815338 -0.41601595 -0.32837906 0.2846474 -0.23454653 0.084692866
-0.046571106 0.00921066 0.07533085 -0.0142156305 -0.08083053 0.005064994 -0.1764698 -0.12466097
-0.34653732 -0.3999105 0.17192963 -0.027048318 0.17414454 -0.036770795 -0.09059419 0.2744517

rnn.rnn.1.V f4 [128, 128]
00000000: 36cb 2c3e ba9a ce3d 34a7 57bd faad 4d3d
00000010: ec87 a8bd 1cdc 7e3c 0748 cbbd 641c 573e
00000020: da5f 7e3d 170e 76be 40ef a6bd 236e 9ebd
00000030: eb17 843d 5e46 02bd abd3 c4bd cd5a 0f3c
00000040: bea8 d2bc 6ca1 fd3d 206a 123e d9f0 1dbd
00000050: 065a dbbb ab87 c0bb 9186 7cbe de2c 1bbe
00000060: e09a aabd 3093 933d a3f8 9bbd 3cad 38be
00000070: 7f2c e4bd 704a 433c c12d 42bc 4544 583e
00000080: 0823 23be 17a9 89bd 539a 163e 8980 993d
00000090: b0e2 e63d 5035 0b3e 4702 533e 4ad6 ca3d
000000a0: 4c5c a8bc eb5d efbd a45a 853e 1f3f 8fbe
000000b0: d954 70bd a780 a5bd 5215 073d f354 88bd
000000c0: 4a57 0cbe 972d b43d 8336 783d 7ae4 4f3c
000000d0: e6be d83d 6870 88be 06e1 593b 0158 2e3d
000000e0: 2e2a 1a3d f363 e5bc a4a6 373e 8112 ccbc
000000f0: 46e3 b0bc 9f62 cd3d b182 173e 1fc0 763e
00000100: df98 3b3e bd32 013e 5dfa b83d ead7 753c
00000110: 0035 193d 1398 bdbd eaee 743d 53b6 8e3c
00000120: 9cc0 d83d fae2 413e 4e86 0a3d 7e30 073d
00000130: 9303 debd e787 d0bd 7215 bfbe 66c1 7ebd
00000140: 57e5 d0bd 894e 863c f447 643d 7fc1 373e
00000150: ab0e 5f3d 9012 afbe e6b2 d0be f9d5 863e
00000160: 4ae3 0fbe bafa d93e 69ee 023e 71d5 f4bd
00000170: b88b bfbc d864 683e 6a72 c4bd edf1 8c3d
00000180: 6447 c6bc 7538 673d 99fc 173e b7b9 cc3d
00000190: 3b93 74be 7b03 3d3d 8844 413e b4e6 4cbd
000001a0: 52f5 53be 3add 4bbe a648 443e a1ff ba3d
000001b0: 679e 823d d7b1 05be e0b3 19bd 4685 43be
000001c0: 7e2d 0abe aaab 0abe 73a7 2b3d 0536 c43d
000001d0: 69f8 d73d 8431 cb3d 6782 063e f065 0b3e
000001e0: f7b0 a63d 6b30 cbbc 2c06 373d a861 ecbd
000001f0: b2f6 40be 6fe9 853d 0b5e 5f3e 638e acbd
00000200: 8f81 db3d fdd5 b03d c954 7cbe 295a 3abe
00000210: c352 dbbd ecd5 113e 864b 8c3c c1fe c5bc
00000220: f535 b23c f7c5 283c 7142 99bd a7c0 65be
00000230: 0f5b f33c e3f3 4ebe 17f2 803e fcbc d23c
00000240: 9b1e aabc 275f 1fbc dee6 da3d fac0 d1bd
00000250: d683 0e3d ef92 bcbc 9c87 e2bd 0c6b 14be
00000260: 0f51 9ebd 4152 1dbe 9325 3ebc 8163 033e
00000270: e93f a83c c4d9 603e d83f 67bd 5ed1 a63b
00000280: 920c 18be 25a2 a9be d02c 863d f296 bb3b
00000290: c15c 723e d97d 7cbe 4097 85be a0eb dabd
000002a0: 8bb2 183e eebd 6abc 4c04 5dbd 2e0b 12be
000002b0: 704d f8bd 675d a03d 2fec 1f3e c564 1bbe
000002c0: 6266 38be 7fbd fb3d 729a 55bd fc4e 4ebe
000002d0: 18b6 bf3d fada 0cbd 62fe 40be 0041 ab3d
000002e0: a1e4 283e 01b4 83bd bd2b 673d bff0 28bd
000002f0: 16b4 87bd b4de b13d 3f9e db3d 779b e83d
00000300: 5db9 79bc 8926 3c3e 7a60 8f3e e192 8e3d
00000310: a89c 87bc d883 d83d 26bf 05be 6a4e fb3d
00000320: 3aa4 15bd 9df1 7bbc 79f0 303d 7bc4 26bd
00000330: 7f4a 47be 311b 24bd 053b 91bd 0b0e 74bd
00000340: cdec 92bd 1f3c c43d 57bd 8f3d 0727 5d3d
00000350: 5984 b53d bb89 8bbd 4a92 3b3e 2558 073e
00000360: 69cf 7a3b 5249 213e f5c7 0a3d a960 e83d
00000370: ce62 203e 0daf 163d 7ab7 24be b6a2 09bd
00000380: a25b 01bc f3d5 fc3d 50df 293d b596 59bd
00000390: 296d dbbd b8c3 913d 381f 4c3d dc46 86be
000003a0: ab31 583d 16ae 98be fced a8bc 29e7 83bc
000003b0: 5345 6f3c 6e97 5bbe d3d2 8fbe 5bff 6b3c
000003c0: d734 8c3e 7c0b f53c 05f3 dd3d 891f 47be
000003d0: cccb bf3e 14cb a1bc 3791 ccbd 4e5c a9bd
000003e0: a22a aabd c349 c83d e7db 0d3d de38 d13d
000003f0: 9169 f73c 546d 0abe b23e 3ebe e134 0cbe
0.16874394 0.100881055 -0.05264969 0.050214745 -0.0822905 0.015555408 -0.099258475 0.21006924
0.06210313 -0.24028812 -0.08151102 -0.07735851 0.064498745 -0.03180539 -0.09610685 0.008749676
-0.025715228 0.123843044 0.14298296 -0.03855977 -0.0066940812 -0.005875548 -0.24660708 -0.15153834
-0.08330321 0.07205808 -0.07615783 -0.18034834 -0.111412995 0.011919603 -0.011851729 0.21119793
-0.15931332 -0.067217045 0.14707308 0.07495219 0.11273706 0.13594556 0.20606337 0.09904154
-0.020551823 -0.11687835 0.26045716 -0.27977845 -0.058674667 -0.08081179 0.032979317 -0.06656828
-0.13705173 0.08797758 0.06059886 0.01268875 0.10583286 -0.2664826 0.0033245697 0.042564396
0.037637882 -0.028001761 0.17934662 -0.024911167 -0.021592747 0.10028576 0.14795949 0.24096726
0.18320034 0.12617011 0.09032128 0.015005091 0.03740406 -0.092575215 0.05979816 0.017420923
0.10583612 0.18934241 0.03381949 0.03300523 -0.108405255 -0.10182171 -0.3732105 -0.062196158
-0.10199993 0.01639487 0.055732682 0.17944907 0.054457348 -0.3419385 -0.4076149 0.26335123
-0.14051548 0.42574102 0.12786259 -0.11954773 -0.023382053 0.22694719 -0.09592135 0.06882081
-0.024203964 0.056450326 0.14842452 0.0999636 -0.23884289 0.046145897 0.18873799 -0.050024703
-0.20699051 -0.1990861 0.19168338 0.091307886 0.06377869 -0.13056122 -0.037525058 -0.19093809
-0.13493916 -0.13542047 0.04190774 0.09580616 0.10545427 0.09921554 0.13135682 0.13613105
0.08139222 -0.02480336 0.04468362 -0.11542064 -0.18844107 0.065386645 0.21813218 -0.084255956
0.10718071 0.08634565 -0.24641718 -0.18198456 -0.10709145 0.14241761 0.017125856 -0.024169328
0.021754244 0.010301105 -0.07483376 -0.22436772 0.029706506 -0.20210223 0.251847 0.02572488
-0.020766547 -0.009727276 0.10688566 -0.102418855 0.034793697 -0.023019282 -0.11061022 -0.1449396
-0.077303044 -0.15363409 -0.011605638 0.12830926 0.020538287 0.21958071 -0.05645737 0.0050908765
-0.14848545 -0.3313152 0.06551516 0.005724781 0.23668195 -0.24657382 -0.26091957 -0.10689473
0.14911859 -0.014327509 -0.053959176 -0.14262077 -0.12124145 0.07830315 0.1561744 -0.1517516
-0.18007806 0.12292003 -0.052149244 -0.20147318 0.093609035 -0.03438852 -0.1884704 0.08362007
0.16493465 -0.064308174 0.056438196 -0.04124522 -0.066261455 0.086850554 0.107235424 0.113577776
-0.015241948 0.18374075 0.28003293 0.06961609 -0.016554192 0.10572022 -0.13061199 0.12270816
-0.03653357 -0.015377429 0.043198083 -0.040714722 -0.19462012 -0.040064994 -0.07091335 -0.059583705
-0.071740724 0.0958178 0.070185356 0.053992298 0.08863134 -0.068133794 0.18317524 0.13217218
0.0038270599 0.15750626 0.0338821 0.113465615 0.15662691 0.036788035 -0.16085616 -0.03360244
-0.007895382 0.12345495 0.041472733 -0.05312224 -0.1071418 0.071174085 0.04983446 -0.26225936
0.052781742 -0.29820317 -0.020621292 -0.016101437 0.0146039305 -0.21444485 -0.28090534 0.014404143
0.27384064 0.029912703 0.10837368 -0.19445623 0.37460172 -0.019750156 -0.09988635 -0.08269559
-0.08308913 0.09779694 0.034633543 0.10215925 0.030201705 -0.13518268 -0.18578604 -0.13692047

rnn.rnn.1.b f4 [128]
00000000: 4a23 643c 11f3 66bd 4b4b ae3d 98a9 bcbd
00000010: 1d9b 30bd 7dad 3b3d 89d3 1c3e 2c3a 833d
00000020: 1c47 f4bc a296 a4bd ca76 65bd 4d73 11bd
00000030: b901 31bc bfe5 febd 0a25 79bd 5ac5 0fbe
00000040: 8eb3 aa3d a799 a03d e27b b6bd 5a95 03be
00000050: b851 d63d 0e85 db3d b623 a53d 3606 15be
00000060: d68a 0f3d 3293 f1bd 5782 f6bc d0e5 483d
00000070: 3ab7 c7bd 2939 e4bd ec04 1abe b468 39bd
00000080: 8ad1 903c ea23 d13b 06a0 24bc a5d5 bfbd
00000090: 483e 39be a6bb 2c3b 6aef 813d 54ef 153e
000000a0: 8fb3 25bd d52c 12be 8083 f4bc 872e 393e
000000b0: ba67 7ebd 73a9 ecbd e53e 1f3e fec3 68bd
000000c0: fab8 0a3e baf8 6ebe 4461 353e 7e67 81bb
000000d0: 391f 8c3d 059d 413d 785e 1a3e 1154 babd
000000e0: 330c 1dbd cd61 c7bb 53b6 d9bc 8f69 ec3d
000000f0: 9ca6 e83d e703 4fbd dc94 763d 3c02 4ebd
00000100: e1b1 41bd 7a8f 3e3e 36e2 93bd 6aaf 13bd
00000110: 509a 113e 7e17 b23c a57b f5bd 5592 b23d
00000120: aba7 fcbd 917f b63d 1629 fe3d 0732 c03d
00000130: a5bd bbbd 11d4 0bbe 2223 173e ff9c 203d
00000140: da46 b8bd 2f0f 5b3d b5d0 87bd 6e67 47be
00000150: 404c 22be 9335 a63d 073e cebc 4843 5e3c
00000160: c68d 7a3d efb2 f93c 253d 70bd 5d77 2c3e
00000170: c221 96bd f196 913c 1d84 903d 21c2 0ebe
00000180: 2095 07bd e080 d1bd 566c 1abd b1a4 9e3d
00000190: 06c3 283c 689c 2cbd 680e f5bd 8432 393e
000001a0: f034 593d c0fa 1a3d dc08 08bd 8519 b6bd
000001b0: 201b d0bd 9338 8ebc 91c9 bc3d f68e 1c3d
000001c0: 7d72 eb3c 1e86 fcbd 97f4 44be 3544 b53c
000001d0: e361 6d3a f43a f8bc 338f d4bc 30d7 133d
000001e0: 6493 b9bd 82c8 a1bd 0fc4 1c3d a9a1 c53c
000001f0: 5f8d e23d 4f5b 9abd 938f 04bd f3cc 133c
0.013924429 -0.05638415 0.08510455 -0.09212035 -0.043116678 0.04581975 0.1531507 0.0640758
-0.029819064 -0.080365434 -0.05602149 -0.03551035 -0.010803633 -0.12446164 -0.06082634 -0.14040127
0.083350286 0.07841807 -0.089103475 -0.12849942 0.10464805 0.107187375 0.08063452 -0.1455315
0.035044514 -0.117956534 -0.030091448 0.04904729 -0.097517446 -0.11143715 -0.1504094 -0.04526587
0.017678041 0.006382455 -0.010047918 -0.09366921 -0.18090165 0.0026356964 0.06344493 0.14642078
-0.040454444 -0.14274915 -0.02984786 0.18084155 -0.06211064 -0.115557574 0.15551336 -0.056827538
0.13547125 -0.23337069 0.17712885 -0.003949105 0.06841893 0.047268886 0.150751 -0.09098066
-0.038341712 -0.006084657 -0.026576197 0.11543571 0.11359903 -0.05054083 0.060200557 -0.0502951
-0.04728878 0.1860942 -0.07220881 -0.03605596 0.14219022 0.021739718 -0.11986474 0.08719317
-0.123366676 0.0891105 0.1241018 0.09384542 -0.09167031 -0.13655116 0.14759496 0.039212223
-0.08997889 0.053481277 -0.066316046 -0.19473049 -0.158494 0.08115687 -0.025176061 0.013565846
0.061170362 0.03048083 -0.058652062 0.16842408 -0.073306575 0.01777217 0.070564486 -0.13941242
-0.0331012 -0.10229659 -0.037700973 0.07746256 0.010300403 -0.042141348 -0.119656384 0.18085676
0.053029 0.03783679 -0.033211574 -0.08891586 -0.10161424 -0.017360961 0.09218133 0.038222276
0.028741116 -0.12330268 -0.19233929 0.02212725 0.0009055419 -0.030301549 -0.025947189 0.03609389
-0.09061316 -0.07899572 0.038272914 0.024124937 0.11062121 -0.07536947 -0.032363486 0.009021032

fc.weight f4 [66, 128]
00000000: a46b bebd d377 ab3e ba10 40be e910 b63b
00000010: 3b39 0dbe 6272 66bc d725 c83d a009 a03c
00000020: 2c68 a4bd e524 363e 779d dfbc abf7 d03d
00000030: b669 9fbe b631 203e dbee bd3c edb5 2a3e
00000040: 6cfc a2bb 29e6 f2bd d94d 9b3e 1d93 6c3e
00000050: 3376 8e3e 45f1 35be 0597 22be ce5a 813d
00000060: cba0 29be 50fd a7bd a2ab 2abd f7a1 a6be
00000070: 03a1 4fbe 65cb b8bd e95c 323d 7087 90bd
00000080: ec6b 45be 42d1 48be 832f 01be 2bfe ea3c
00000090: d2e0 d3bd 130d 2fbe 295f 143e f5ce e6bd
000000a0: 9031 023e c020 3b3e 917d e3bc 0650 04bd
000000b0: eab2 773d c4d8 b63e a1f0 94be 04e8 2fbe
000000c0: 8e6d 6a3c 44d8 183e 176b 223e 28db 45be
000000d0: 7462 4dbe 4f3b c93d 94f1 81be c932 9fbe
000000e0: df1d b43d 0512 b43e 46a3 bebb 2742 c7bd
000000f0: de8f 24be 976c 8dbe fee8 b3bb 2492 4f3e
00000100: ba22 653d 201d 6f3e dc99 51be 712f 9cbd
00000110: fb0d 013d 9872 593e 49d4 733e 1f25 4dbe
00000120: 0ae4 f2bc ce17 b7bd f695 5bbc bab7 923b
00000130: 2ba3 a1be a502 323e 3b77 6ebe af15 893e
00000140: 069d c1bb a4d3 73be 7b28 3bbd 0e4e 463e
00000150: 4182 2a3e a106 8f3d 5c37 08bd 18e2 21be
00000160: 25c3 33be bd40 5ebd 3667 cabd fd19 b2be
00000170: e1b7 5c3d 0454 6b3d 9ad4 b33b f119 95be
00000180: 01cf 9fbe 2b52 60be ce78 bb3e a57b 423e
00000190: d744 35be 8bf3 2b3d 76f5 a5bc 9df8 4fbe
000001a0: f588 fc3d aa5c 85be 7767 a53e 4f59 ba3d
000001b0: c7ba 463d edbf 07bc 1377 1b3e 6a02 5ebd
000001c0: 258f b3be 1faf fe3d c08a 583e 040d 573d
000001d0: 1146 823e f811 393d fd50 a23b 75c3 783e
000001e0: 5b2a 9c3e 0ca6 2a3e 3664 4bbe 6a0e cfbe
000001f0: 1f38 8a3c 82a5 9e3c b168 a7bd 65fb 843e
00000200: b5d8 c53d 639a cf3c 2bec a9bd 47bf 6e3d
00000210: bb7d bd3c 79ae fbbc b9ba bbbd c69b 423d
00000220: 28c6 273d a5d9 3f3d 196e 383d a958 173d
00000230: 613e aa3d db28 863d 0b39 8b3d 25e7 0d3d
00000240: 05a1 19bd d205 f8bc f870 933d ddcb 5e3b
00000250: 78bb aabd e5b2 c2bc 5d9d e3bd 5f9e 9b3d
00000260: 4d82 f2bd e5d8 183e 43b8 dd3c 13b9 29bb
00000270: 19d9 803d b37a 533d 6039 193d 6fbf a53d
00000280: acfe 1cbd faf3 81bd df9f 333c 2f50 ae3d
00000290: 313e 993d 8447 87bc 18b5 93bd 6f8d d6bd
000002a0: 1b87 a8bc 86e3 853d 757b b33c 86c9 c53c
000002b0: c274 0c3d f123 3f3d 8faf b0bd 50d6 3abc
000002c0: 5c86 f8bc 76ed 1e3e ba7a a6bd 53e1 10bb
000002d0: 299e 86bd 8ef0 c73c d4cd a6bd 9bf5 183d
000002e0: 2000 453d 960b 213d 9272 ce3c f820 0cbc
000002f0: 527b 57bd c883 323d 2246 59bd 5c2f 37bc
00000300: 1267 0d3d 17e8 f3bd 36b2 f13d b533 4d3d
00000310: 35b4 1ebd b59d c3bb 0e67 dd3c 42ff 2abd
00000320: aac0 fbba cdbe e83c a085 9abc c753 77bd
00000330: 999c 883d 739f b93d 9843 c1bd 1182 66bc
00000340: e32a 03bd c0c0 91bd daaf 7abd 3930 7c3d
00000350: 17ee ea3d c4fd 01be 90a5 33bd e339 a73d
00000360: 33cf 8bbd 0983 073e b223 bebd 1ddb 9ebd
00000370: 05f6 4a3d 3082 01bd 9937 7a3d 70c4 0d3d
00000380: cdad 823c f466 6a3d bc7a 44bc 4fd8 963c
00000390: 6ea5 893d 3194 c83d 9eb4 4e3d 1ae6 b9bd
000003a0: 054e 01bc c6e5 bdbd 8d8e bbbb 33d2 c83d
000003b0: d1a6 e93c 7ca3 4fba eb79 7e3c d4a5 d9bd
000003c0: 919a bb3d 6b3d 083e c00d 983d f2b6 143a
000003d0: f6bb adbd 753f f4bc a99c 343d c42a 4fbd
000003e0: 1fd8 243d 85b2 7f3c e402 c6bd 4f52 7ebd
000003f0: 3799 e3bd 988d c93c d7b3 693d a287 a4bd
-0.092978746 0.33489856 -0.1875638 0.005556215 -0.13791363 -0.014065357 0.097728424 0.01953584
-0.08027682 0.17787512 -0.027296765 0.10203489 -0.3113534 0.15643963 0.023185184 0.16670962
-0.0049739387 -0.11860306 0.3033283 0.23102994 0.27824554 -0.17767818 -0.15877922 0.06316148
-0.16565244 -0.082026124 -0.041667588 -0.32545444 -0.20276265 -0.090231694 0.043545637 -0.07057083
-0.1927945 -0.19611076 -0.1261578 0.02868565 -0.103456154 -0.17094831 0.14489426 -0.11269943
0.12714219 0.18274212 -0.027769836 -0.03230288 0.06047336 0.35712254 -0.29089835 -0.1717835
0.014308346 0.14926249 0.15861164 -0.19321883 -0.20057088 0.09825765 -0.25379622 -0.31093433
0.0879476 0.35169998 -0.0058178036 -0.097294144 -0.16070506 -0.2762191 -0.0054904213 0.20270592
0.05594132 0.23350954 -0.20468849 -0.07626236 0.031507473 0.2123512 0.23811449 -0.20033692
-0.029649753 -0.08940087 -0.013402453 0.0044774683 -0.315698 0.17383821 -0.2328767 0.26774356
-0.005908611 -0.23811203 -0.045692902 0.19365713 0.1665125 0.06983686 -0.03325592 -0.15808904
-0.1755491 -0.054260958 -0.09882967 -0.34785452 0.053886298 0.05745317 0.0054879906 -0.29121354
-0.3121262 -0.21906345 0.36615604 0.18992479 -0.17702042 0.041980308 -0.020258646 -0.20309682
0.1233081 -0.2604726 0.323055 0.090990655 0.04851797 -0.008285505 0.15182142 -0.05420152
-0.35070148 0.124357454 0.21146679 0.052502647 0.2544408 0.045183152 0.004953502 0.24293311
0.30501065 0.16664904 -0.19862446 -0.40440685 0.016872464 0.01936603 -0.08174265 0.2597305
0.09660474 0.025342172 -0.082969986 0.058287885 0.023131242 -0.030722843 -0.09166474 0.04751184
0.04096046 0.04683842 0.045026872 0.036949787 0.08312679 0.06550761 0.067979895 0.034644265
-0.037507076 -0.030276213 0.071992815 0.0033996024 -0.08336538 -0.023766944 -0.11113999 0.07598566
-0.11841259 0.14926489 0.027065402 -0.0025897666 0.06291408 0.051630687 0.037408233 0.08093154
-0.03832881 -0.06345363 0.010963409 0.085113876 0.07482565 -0.016513593 -0.07212275 -0.10476195
-0.020572236 0.06537537 0.021909455 0.024143945 0.034291036 0.046665136 -0.08627235 -0.011403635
-0.030337505 0.15520272 -0.08128877 -0.002210696 -0.065731354 0.024406698 -0.08144727 0.037343603
0.048095822 0.03931769 0.025201116 -0.008552782 -0.05260784 0.043582708 -0.0530454 -0.011180725
0.034522124 -0.11909502 0.11801569 0.05009814 -0.038746078 -0.005969728 0.02702668 -0.04174734
-0.0019207199 0.028411293 -0.018862545 -0.06038263 0.06670494 0.09063616 -0.094367206 -0.014069096
-0.03202332 -0.07116842 -0.06120286 0.061569426 0.11471193 -0.1269446 -0.043859065 0.08165338
-0.068266295 0.1323358 -0.09284152 -0.07756636 0.04955103 -0.031618297 0.06108818 0.034611166
0.015952015 0.05722709 -0.011992153 0.01841369 0.06721006 0.0979389 0.05046522 -0.090770915
-0.007892136 -0.092723414 -0.0057237805 0.09805717 0.028521927 -0.00079207844 0.015531997 -0.10627332
0.091603406 0.13304679 0.074244976 0.0005673013 -0.08483116 -0.029815415 0.044094715 -0.050577894
0.04024517 0.015606527 -0.0966852 -0.062090214 -0.11113208 0.02460365 0.057056274 -0.080336824

fc.bias f4 [66]
00000000: d6ec bcbc 1b9a 38be 0806 e33d a19f ad3d
00000010: 0dde 83bc d5a5 60bd 67ac 643c 29a9 aebd
00000020: e3b0 9cbd 33cc 5abd 4ec8 0ebe 82d0 27bd
00000030: 9e2e 22be d710 11bb 445e 0fbd 5d42 26bd
00000040: 5a5c ec3d b5cc 1cbd d5e4 efbc 6f13 02bd
00000050: 158a 2bbd 2448 75bd eeb3 643d a684 bc3d
00000060: e623 f6bb 4178 c8bc 0d95 9cbd 6abe 6cbe
00000070: c91a d13d 0271 173e 2dee 83bd c68f 333e
00000080: b836 3ebe 4fd2 79bd 4744 bd3c f41a 1ebe
00000090: 5770 d9bd 9a3c 403d 9e52 053d b6d5 44be
000000a0: 9fec efbb 37db 663d 6f67 83bd 8809 8e3d
000000b0: c4e4 183d 2f9b 433c f5d2 edbd f806 803c
000000c0: d001 97bb 72b0 18be 68cf b2bd 5c0c c9bd
000000d0: 01fa 2fbe e8c1 39bd 5d6c 853c 8374 333c
000000e0: 319f 28bc 4a66 c6bd fd63 333e d223 05be
000000f0: 76a0 bebd 8b38 e0bc 3dcb 3e3c 2043 a9bd
00000100: ebce cebc 8a78 c7bd
-0.02306215 -0.18027537 0.11085135 0.084777124 -0.016097093 -0.05484565 0.01395712 -0.085283585
-0.07650926 -0.053417396 -0.13943598 -0.040970333 -0.15838096 -0.0022135281 -0.035002008 -0.040590633
0.11541052 -0.03828116 -0.02928392 -0.031756815 -0.041879732 -0.05988325 0.055835657 0.09204988
-0.0075116036 -0.024471404 -0.07645617 -0.23119512 0.10210187 0.14789203 -0.06441913 0.17535314
-0.18575561 -0.06099158 0.023103846 -0.1543997 -0.1061713 0.046932794 0.032549493 -0.19222149
-0.0073219086 0.056361403 -0.06416213 0.06935412 0.037327543 0.011938854 -0.116125025 0.015628323
-0.0046083704 -0.14911059 -0.08730966 -0.098168105 -0.17185213 -0.04535094 0.016287023 0.0109530715
-0.01029186 -0.09687479 0.17518611 -0.13001946 -0.09307949 -0.027370712 0.0116451355 -0.08264756
-0.02524515 -0.09739788
